…
170467328/170498071 [============================>.] - ETA: 0s170483712/170498071 [============================>.] - ETA: 0s170500096/170498071 [==============================] - 1098s 6us/step
Model: "sequential"
_________________________________________________________________
Layer (type)                 Output Shape              Param #   
=================================================================
conv2d (Conv2D)              (None, 30, 30, 32)        896       
_________________________________________________________________
max_pooling2d (MaxPooling2D) (None, 15, 15, 32)        0         
_________________________________________________________________
conv2d_1 (Conv2D)            (None, 13, 13, 64)        18496     
_________________________________________________________________
max_pooling2d_1 (MaxPooling2 (None, 6, 6, 64)          0         
_________________________________________________________________
flatten (Flatten)            (None, 2304)              0         
_________________________________________________________________
dense (Dense)                (None, 64)                147520    
_________________________________________________________________
dense_1 (Dense)              (None, 10)                650       
=================================================================
Total params: 167,562
Trainable params: 167,562
Non-trainable params: 0
_________________________________________________________________
Epoch 1/50
   1/1563 [..............................] - ETA: 1:41:06 - loss: 2.3280 - accuracy: 0.0625
…
>.] - ETA: 0s - loss: 0.0970 - accuracy: 0.96591563/1563 [==============================] - 3s 2ms/step - loss: 0.0973 - accuracy: 0.9658 - val_loss: 3.0673 - val_accuracy: 0.6597
Epoch 50  acc: 0.9658, loss: 0.0973, val_acc: 0.6597, val_loss: 3.0673, time: 2.84s
Model: "sequential_1"
_________________________________________________________________
Layer (type)                 Output Shape              Param #   
=================================================================
conv2d_2 (Conv2D)            (None, 30, 30, 32)        896       
_________________________________________________________________
batch_normalization (BatchNo (None, 30, 30, 32)        128       
_________________________________________________________________
max_pooling2d_2 (MaxPooling2 (None, 15, 15, 32)        0         
_________________________________________________________________
conv2d_3 (Conv2D)            (None, 13, 13, 64)        18496     
_________________________________________________________________
batch_normalization_1 (Batch (None, 13, 13, 64)        256       
_________________________________________________________________
max_pooling2d_3 (MaxPooling2 (None, 6, 6, 64)          0         
_________________________________________________________________
flatten_1 (Flatten)          (None, 2304)              0         
_________________________________________________________________
dropout (Dropout)            (None, 2304)              0         
_________________________________________________________________
dense_2 (Dense)              (None, 64)                147520    
_________________________________________________________________
dense_3 (Dense)              (None, 10)                650       
=================================================================
Total params: 167,946
Trainable params: 167,754
Non-trainable params: 192
_________________________________________________________________
Epoch 1/50
  1/782 [..............................] - ETA: 6:10 - loss: 3.5425 - accuracy: 0.0938 
…
====>.] - ETA: 0s - loss: 0.2187 - accuracy: 0.9222782/782 [==============================] - 2s 2ms/step - loss: 0.2191 - accuracy: 0.9221 - val_loss: 1.1456 - val_accuracy: 0.7025
Epoch 50  acc: 0.9221, loss: 0.2191, val_acc: 0.7025, val_loss: 1.1456, time: 1.82s
Model: "sequential_2"
_________________________________________________________________
Layer (type)                 Output Shape              Param #   
=================================================================
conv2d_4 (Conv2D)            (None, 32, 32, 32)        896       
_________________________________________________________________
batch_normalization_2 (Batch (None, 32, 32, 32)        128       
_________________________________________________________________
max_pooling2d_4 (MaxPooling2 (None, 16, 16, 32)        0         
_________________________________________________________________
conv2d_5 (Conv2D)            (None, 16, 16, 64)        18496     
_________________________________________________________________
batch_normalization_3 (Batch (None, 16, 16, 64)        256       
_________________________________________________________________
max_pooling2d_5 (MaxPooling2 (None, 8, 8, 64)          0         
_________________________________________________________________
conv2d_6 (Conv2D)            (None, 8, 8, 128)         73856     
_________________________________________________________________
batch_normalization_4 (Batch (None, 8, 8, 128)         512       
_________________________________________________________________
max_pooling2d_6 (MaxPooling2 (None, 4, 4, 128)         0         
_________________________________________________________________
flatten_2 (Flatten)          (None, 2048)              0         
_________________________________________________________________
dropout_1 (Dropout)          (None, 2048)              0         
_________________________________________________________________
dense_4 (Dense)              (None, 64)                131136    
_________________________________________________________________
dense_5 (Dense)              (None, 10)                650       
=================================================================
Total params: 225,930
Trainable params: 225,482
Non-trainable params: 448
_________________________________________________________________
Epoch 1/50
  1/782 [..............................] - ETA: 9:40 - loss: 3.4997 - accuracy: 0.0625 
…
====>.] - ETA: 0s - loss: 0.0918 - accuracy: 0.9692782/782 [==============================] - 2s 3ms/step - loss: 0.0918 - accuracy: 0.9691 - val_loss: 1.2394 - val_accuracy: 0.7298
Epoch 50  acc: 0.9691, loss: 0.0918, val_acc: 0.7298, val_loss: 1.2394, time: 2.13s
Model: "sequential_3"
_________________________________________________________________
Layer (type)                 Output Shape              Param #   
=================================================================
conv2d_7 (Conv2D)            (None, 32, 32, 64)        1792      
_________________________________________________________________
conv2d_8 (Conv2D)            (None, 32, 32, 64)        36928     
_________________________________________________________________
batch_normalization_5 (Batch (None, 32, 32, 64)        256       
_________________________________________________________________
max_pooling2d_7 (MaxPooling2 (None, 16, 16, 64)        0         
_________________________________________________________________
conv2d_9 (Conv2D)            (None, 16, 16, 128)       73856     
_________________________________________________________________
conv2d_10 (Conv2D)           (None, 16, 16, 128)       147584    
_________________________________________________________________
batch_normalization_6 (Batch (None, 16, 16, 128)       512       
_________________________________________________________________
max_pooling2d_8 (MaxPooling2 (None, 8, 8, 128)         0         
_________________________________________________________________
conv2d_11 (Conv2D)           (None, 8, 8, 256)         295168    
_________________________________________________________________
conv2d_12 (Conv2D)           (None, 8, 8, 256)         590080    
_________________________________________________________________
batch_normalization_7 (Batch (None, 8, 8, 256)         1024      
_________________________________________________________________
max_pooling2d_9 (MaxPooling2 (None, 4, 4, 256)         0         
_________________________________________________________________
flatten_3 (Flatten)          (None, 4096)              0         
_________________________________________________________________
dropout_2 (Dropout)          (None, 4096)              0         
_________________________________________________________________
dense_6 (Dense)              (None, 128)               524416    
_________________________________________________________________
dense_7 (Dense)              (None, 10)                1290      
=================================================================
Total params: 1,672,906
Trainable params: 1,672,010
Non-trainable params: 896
_________________________________________________________________
Epoch 1/50
  1/782 [..............................] - ETA: 10:10 - loss: 4.9084 - accuracy: 0.0938
…
